data shape is (403984, 65, 16, 1)
Model: "sequential"
_________________________________________________________________
Layer (type)                 Output Shape              Param #   
=================================================================
conv2d (Conv2D)              (None, 65, 16, 32)        320       
_________________________________________________________________
batch_normalization (BatchNo (None, 65, 16, 32)        128       
_________________________________________________________________
conv2d_1 (Conv2D)            (None, 65, 16, 64)        18496     
_________________________________________________________________
conv2d_2 (Conv2D)            (None, 65, 16, 128)       73856     
_________________________________________________________________
max_pooling2d (MaxPooling2D) (None, 33, 8, 128)        0         
_________________________________________________________________
batch_normalization_1 (Batch (None, 33, 8, 128)        512       
_________________________________________________________________
conv2d_3 (Conv2D)            (None, 33, 8, 256)        819456    
_________________________________________________________________
max_pooling2d_1 (MaxPooling2 (None, 17, 4, 256)        0         
_________________________________________________________________
batch_normalization_2 (Batch (None, 17, 4, 256)        1024      
_________________________________________________________________
flatten (Flatten)            (None, 17408)             0         
_________________________________________________________________
dense (Dense)                (None, 64)                1114176   
_________________________________________________________________
dropout (Dropout)            (None, 64)                0         
_________________________________________________________________
dense_1 (Dense)              (None, 128)               8320      
_________________________________________________________________
dense_2 (Dense)              (None, 2)                 258       
=================================================================
Total params: 2,036,546
Trainable params: 2,035,714
Non-trainable params: 832
_________________________________________________________________
Epoch 1/50
 1/35 [..............................] - ETA: 21:37 - loss: 0.8309 - accuracy: 0.3348
…
