…
2022-02-05 14:16:15.510821: I tensorflow/stream_executor/cuda/cuda_gpu_executor.cc:937] successful NUMA node read from SysFS had negative value (-1), but there must be at least one NUMA node, so returning NUMA node zero
2022-02-05 14:16:15.512406: I tensorflow/core/common_runtime/gpu/gpu_device.cc:1510] Created device /job:localhost/replica:0/task:0/device:GPU:0 with 46710 MB memory:  -> device: 0, name: RTX A6000, pci bus id: 0000:11:00.0, compute capability: 8.6
Model: "sequential"
_________________________________________________________________
Layer (type)                 Output Shape              Param #
=================================================================
conv2d (Conv2D)              (None, 65, 16, 32)        320
_________________________________________________________________
batch_normalization (BatchNo (None, 65, 16, 32)        128
_________________________________________________________________
conv2d_1 (Conv2D)            (None, 65, 16, 64)        18496
_________________________________________________________________
conv2d_2 (Conv2D)            (None, 65, 16, 128)       73856
_________________________________________________________________
max_pooling2d (MaxPooling2D) (None, 33, 8, 128)        0
_________________________________________________________________
batch_normalization_1 (Batch (None, 33, 8, 128)        512
_________________________________________________________________
conv2d_3 (Conv2D)            (None, 33, 8, 256)        819456
_________________________________________________________________
max_pooling2d_1 (MaxPooling2 (None, 17, 4, 256)        0
_________________________________________________________________
batch_normalization_2 (Batch (None, 17, 4, 256)        1024
_________________________________________________________________
flatten (Flatten)            (None, 17408)             0
_________________________________________________________________
dense (Dense)                (None, 64)                1114176
_________________________________________________________________
dropout (Dropout)            (None, 64)                0
_________________________________________________________________
dense_1 (Dense)              (None, 128)               8320
_________________________________________________________________
dense_2 (Dense)              (None, 2)                 258
=================================================================
Total params: 2,036,546
Trainable params: 2,035,714
Non-trainable params: 832
_________________________________________________________________
2022-02-05 14:16:17.839622: I tensorflow/compiler/mlir/mlir_graph_optimization_pass.cc:185] None of the MLIR Optimization Passes are enabled (registered 2)
Epoch 1/50
2022-02-05 14:16:19.628564: I tensorflow/stream_executor/cuda/cuda_dnn.cc:369] Loaded cuDNN version 8201
…
