data shape is (403984, 65, 16)
Model: "sequential"
_________________________________________________________________
Layer (type)                 Output Shape              Param #   
=================================================================
flatten (Flatten)            (None, 1040)              0         
_________________________________________________________________
dense (Dense)                (None, 512)               532992    
_________________________________________________________________
dropout (Dropout)            (None, 512)               0         
_________________________________________________________________
dense_1 (Dense)              (None, 256)               131328    
_________________________________________________________________
dropout_1 (Dropout)          (None, 256)               0         
_________________________________________________________________
dense_2 (Dense)              (None, 128)               32896     
_________________________________________________________________
dropout_2 (Dropout)          (None, 128)               0         
_________________________________________________________________
dense_3 (Dense)              (None, 64)                8256      
_________________________________________________________________
dense_4 (Dense)              (None, 2)                 130       
=================================================================
Total params: 705,602
Trainable params: 705,602
Non-trainable params: 0
_________________________________________________________________
Epoch 1/50
 1/35 [..............................] - ETA: 1:09 - loss: 31.6634 - accuracy: 0.6919 4/35
…
