…
2022-02-06 03:56:29.837451: I tensorflow/stream_executor/cuda/cuda_gpu_executor.cc:937] successful NUMA node read from SysFS had negative value (-1), but there must be at least one NUMA node, so returning NUMA node zero
2022-02-06 03:56:29.838903: I tensorflow/core/common_runtime/gpu/gpu_device.cc:1510] Created device /job:localhost/replica:0/task:0/device:GPU:0 with 46710 MB memory:  -> device: 0, name: RTX A6000, pci bus id: 0000:11:00.0, compute capability: 8.6
Model: "sequential"
_________________________________________________________________
Layer (type)                 Output Shape              Param #
=================================================================
flatten (Flatten)            (None, 1040)              0
_________________________________________________________________
dense (Dense)                (None, 512)               532992
_________________________________________________________________
dropout (Dropout)            (None, 512)               0
_________________________________________________________________
dense_1 (Dense)              (None, 256)               131328
_________________________________________________________________
dropout_1 (Dropout)          (None, 256)               0
_________________________________________________________________
dense_2 (Dense)              (None, 128)               32896
_________________________________________________________________
dropout_2 (Dropout)          (None, 128)               0
_________________________________________________________________
dense_3 (Dense)              (None, 64)                8256
_________________________________________________________________
dense_4 (Dense)              (None, 2)                 130
=================================================================
Total params: 705,602
Trainable params: 705,602
Non-trainable params: 0
_________________________________________________________________
2022-02-06 03:56:39.922721: I tensorflow/compiler/mlir/mlir_graph_optimization_pass.cc:185] None of the MLIR Optimization Passes are enabled (registered 2)
Epoch 1/50
2022-02-06 03:56:42.020571: I tensorflow/stream_executor/cuda/cuda_blas.cc:1760] TensorFloat-32 will be used for the matrix multiplication. This will only be logged once.
…
