…
2022-02-05 14:04:58.652416: I tensorflow/stream_executor/cuda/cuda_gpu_executor.cc:937] successful NUMA node read from SysFS had negative value (-1), but there must be at least one NUMA node, so returning NUMA node zero
2022-02-05 14:04:58.653910: I tensorflow/core/common_runtime/gpu/gpu_device.cc:1510] Created device /job:localhost/replica:0/task:0/device:GPU:0 with 46710 MB memory:  -> device: 0, name: RTX A6000, pci bus id: 0000:11:00.0, compute capability: 8.6
Model: "sequential"
_________________________________________________________________
Layer (type)                 Output Shape              Param #
=================================================================
lstm (LSTM)                  (None, 65, 128)           74240
_________________________________________________________________
lstm_1 (LSTM)                (None, 128)               131584
_________________________________________________________________
dense (Dense)                (None, 2)                 258
_________________________________________________________________
dense_1 (Dense)              (None, 128)               384
_________________________________________________________________
dense_2 (Dense)              (None, 64)                8256
_________________________________________________________________
dropout (Dropout)            (None, 64)                0
_________________________________________________________________
dense_3 (Dense)              (None, 48)                3120
_________________________________________________________________
dropout_1 (Dropout)          (None, 48)                0
_________________________________________________________________
dense_4 (Dense)              (None, 2)                 98
=================================================================
Total params: 217,940
Trainable params: 217,940
Non-trainable params: 0
_________________________________________________________________
2022-02-05 14:05:00.207111: I tensorflow/compiler/mlir/mlir_graph_optimization_pass.cc:185] None of the MLIR Optimization Passes are enabled (registered 2)
Epoch 1/50
2022-02-05 14:05:06.120531: I tensorflow/stream_executor/cuda/cuda_blas.cc:1760] TensorFloat-32 will be used for the matrix multiplication. This will only be logged once.
…
