data shape is (403984, 65, 16)
Model: "sequential"
_________________________________________________________________
Layer (type)                 Output Shape              Param #   
=================================================================
lstm (LSTM)                  (None, 65, 128)           74240     
_________________________________________________________________
lstm_1 (LSTM)                (None, 128)               131584    
_________________________________________________________________
dense (Dense)                (None, 2)                 258       
_________________________________________________________________
dense_1 (Dense)              (None, 128)               384       
_________________________________________________________________
dense_2 (Dense)              (None, 64)                8256      
_________________________________________________________________
dropout (Dropout)            (None, 64)                0         
_________________________________________________________________
dense_3 (Dense)              (None, 48)                3120      
_________________________________________________________________
dropout_1 (Dropout)          (None, 48)                0         
_________________________________________________________________
dense_4 (Dense)              (None, 2)                 98        
=================================================================
Total params: 217,940
Trainable params: 217,940
Non-trainable params: 0
_________________________________________________________________
Epoch 1/50
 1/35 [..............................] - ETA: 4:01 - loss: 0.7039 - accuracy: 0.2555 2/35 
…
