…
2022-02-05 14:27:59.810355: I tensorflow/core/common_runtime/gpu/gpu_device.cc:1510] Created device /job:localhost/replica:0/task:0/device:GPU:0 with 46710 MB memory:  -> device: 0, name: RTX A6000, pci bus id: 0000:11:00.0, compute capability: 8.6
Model: "res_net2d18"
__________________________________________________________________________________________________
Layer (type)                    Output Shape         Param #     Connected to
==================================================================================================
input_1 (InputLayer)            [(None, 65, 16, 1)]  0
__________________________________________________________________________________________________
conv1 (Conv2D)                  (None, 33, 8, 64)    3136        input_1[0][0]
__________________________________________________________________________________________________
bn_conv1 (BatchNormalization)   (None, 33, 8, 64)    256         conv1[0][0]
__________________________________________________________________________________________________
conv1_relu (Activation)         (None, 33, 8, 64)    0           bn_conv1[0][0]
__________________________________________________________________________________________________
pool1 (MaxPooling2D)            (None, 17, 4, 64)    0           conv1_relu[0][0]
__________________________________________________________________________________________________
padding2a_branch2a (ZeroPadding (None, 19, 6, 64)    0           pool1[0][0]
__________________________________________________________________________________________________
res2a_branch2a (Conv2D)         (None, 17, 4, 64)    36864       padding2a_branch2a[0][0]
__________________________________________________________________________________________________
bn2a_branch2a (BatchNormalizati (None, 17, 4, 64)    256         res2a_branch2a[0][0]
__________________________________________________________________________________________________
res2a_branch2a_relu (Activation (None, 17, 4, 64)    0           bn2a_branch2a[0][0]
__________________________________________________________________________________________________
padding2a_branch2b (ZeroPadding (None, 19, 6, 64)    0           res2a_branch2a_relu[0][0]
__________________________________________________________________________________________________
res2a_branch2b (Conv2D)         (None, 17, 4, 64)    36864       padding2a_branch2b[0][0]
__________________________________________________________________________________________________
res2a_branch1 (Conv2D)          (None, 17, 4, 64)    4096        pool1[0][0]
__________________________________________________________________________________________________
bn2a_branch2b (BatchNormalizati (None, 17, 4, 64)    256         res2a_branch2b[0][0]
__________________________________________________________________________________________________
bn2a_branch1 (BatchNormalizatio (None, 17, 4, 64)    256         res2a_branch1[0][0]
__________________________________________________________________________________________________
res2a (Add)                     (None, 17, 4, 64)    0           bn2a_branch2b[0][0]
                                                                 bn2a_branch1[0][0]
__________________________________________________________________________________________________
res2a_relu (Activation)         (None, 17, 4, 64)    0           res2a[0][0]
__________________________________________________________________________________________________
padding2b1_branch2a (ZeroPaddin (None, 19, 6, 64)    0           res2a_relu[0][0]
__________________________________________________________________________________________________
res2b1_branch2a (Conv2D)        (None, 17, 4, 64)    36864       padding2b1_branch2a[0][0]
__________________________________________________________________________________________________
bn2b1_branch2a (BatchNormalizat (None, 17, 4, 64)    256         res2b1_branch2a[0][0]
__________________________________________________________________________________________________
res2b1_branch2a_relu (Activatio (None, 17, 4, 64)    0           bn2b1_branch2a[0][0]
__________________________________________________________________________________________________
padding2b1_branch2b (ZeroPaddin (None, 19, 6, 64)    0           res2b1_branch2a_relu[0][0]
__________________________________________________________________________________________________
res2b1_branch2b (Conv2D)        (None, 17, 4, 64)    36864       padding2b1_branch2b[0][0]
__________________________________________________________________________________________________
bn2b1_branch2b (BatchNormalizat (None, 17, 4, 64)    256         res2b1_branch2b[0][0]
__________________________________________________________________________________________________
res2b1 (Add)                    (None, 17, 4, 64)    0           bn2b1_branch2b[0][0]
                                                                 res2a_relu[0][0]
__________________________________________________________________________________________________
res2b1_relu (Activation)        (None, 17, 4, 64)    0           res2b1[0][0]
__________________________________________________________________________________________________
padding3a_branch2a (ZeroPadding (None, 19, 6, 64)    0           res2b1_relu[0][0]
__________________________________________________________________________________________________
res3a_branch2a (Conv2D)         (None, 9, 2, 128)    73728       padding3a_branch2a[0][0]
__________________________________________________________________________________________________
bn3a_branch2a (BatchNormalizati (None, 9, 2, 128)    512         res3a_branch2a[0][0]
__________________________________________________________________________________________________
res3a_branch2a_relu (Activation (None, 9, 2, 128)    0           bn3a_branch2a[0][0]
__________________________________________________________________________________________________
padding3a_branch2b (ZeroPadding (None, 11, 4, 128)   0           res3a_branch2a_relu[0][0]
__________________________________________________________________________________________________
res3a_branch2b (Conv2D)         (None, 9, 2, 128)    147456      padding3a_branch2b[0][0]
__________________________________________________________________________________________________
res3a_branch1 (Conv2D)          (None, 9, 2, 128)    8192        res2b1_relu[0][0]
__________________________________________________________________________________________________
bn3a_branch2b (BatchNormalizati (None, 9, 2, 128)    512         res3a_branch2b[0][0]
__________________________________________________________________________________________________
bn3a_branch1 (BatchNormalizatio (None, 9, 2, 128)    512         res3a_branch1[0][0]
__________________________________________________________________________________________________
res3a (Add)                     (None, 9, 2, 128)    0           bn3a_branch2b[0][0]
                                                                 bn3a_branch1[0][0]
__________________________________________________________________________________________________
res3a_relu (Activation)         (None, 9, 2, 128)    0           res3a[0][0]
__________________________________________________________________________________________________
padding3b1_branch2a (ZeroPaddin (None, 11, 4, 128)   0           res3a_relu[0][0]
__________________________________________________________________________________________________
res3b1_branch2a (Conv2D)        (None, 9, 2, 128)    147456      padding3b1_branch2a[0][0]
__________________________________________________________________________________________________
bn3b1_branch2a (BatchNormalizat (None, 9, 2, 128)    512         res3b1_branch2a[0][0]
__________________________________________________________________________________________________
res3b1_branch2a_relu (Activatio (None, 9, 2, 128)    0           bn3b1_branch2a[0][0]
__________________________________________________________________________________________________
padding3b1_branch2b (ZeroPaddin (None, 11, 4, 128)   0           res3b1_branch2a_relu[0][0]
__________________________________________________________________________________________________
res3b1_branch2b (Conv2D)        (None, 9, 2, 128)    147456      padding3b1_branch2b[0][0]
__________________________________________________________________________________________________
bn3b1_branch2b (BatchNormalizat (None, 9, 2, 128)    512         res3b1_branch2b[0][0]
__________________________________________________________________________________________________
res3b1 (Add)                    (None, 9, 2, 128)    0           bn3b1_branch2b[0][0]
                                                                 res3a_relu[0][0]
__________________________________________________________________________________________________
res3b1_relu (Activation)        (None, 9, 2, 128)    0           res3b1[0][0]
__________________________________________________________________________________________________
padding4a_branch2a (ZeroPadding (None, 11, 4, 128)   0           res3b1_relu[0][0]
__________________________________________________________________________________________________
res4a_branch2a (Conv2D)         (None, 5, 1, 256)    294912      padding4a_branch2a[0][0]
__________________________________________________________________________________________________
bn4a_branch2a (BatchNormalizati (None, 5, 1, 256)    1024        res4a_branch2a[0][0]
__________________________________________________________________________________________________
res4a_branch2a_relu (Activation (None, 5, 1, 256)    0           bn4a_branch2a[0][0]
__________________________________________________________________________________________________
padding4a_branch2b (ZeroPadding (None, 7, 3, 256)    0           res4a_branch2a_relu[0][0]
__________________________________________________________________________________________________
res4a_branch2b (Conv2D)         (None, 5, 1, 256)    589824      padding4a_branch2b[0][0]
__________________________________________________________________________________________________
res4a_branch1 (Conv2D)          (None, 5, 1, 256)    32768       res3b1_relu[0][0]
__________________________________________________________________________________________________
bn4a_branch2b (BatchNormalizati (None, 5, 1, 256)    1024        res4a_branch2b[0][0]
__________________________________________________________________________________________________
bn4a_branch1 (BatchNormalizatio (None, 5, 1, 256)    1024        res4a_branch1[0][0]
__________________________________________________________________________________________________
res4a (Add)                     (None, 5, 1, 256)    0           bn4a_branch2b[0][0]
                                                                 bn4a_branch1[0][0]
__________________________________________________________________________________________________
res4a_relu (Activation)         (None, 5, 1, 256)    0           res4a[0][0]
__________________________________________________________________________________________________
padding4b1_branch2a (ZeroPaddin (None, 7, 3, 256)    0           res4a_relu[0][0]
__________________________________________________________________________________________________
res4b1_branch2a (Conv2D)        (None, 5, 1, 256)    589824      padding4b1_branch2a[0][0]
__________________________________________________________________________________________________
bn4b1_branch2a (BatchNormalizat (None, 5, 1, 256)    1024        res4b1_branch2a[0][0]
__________________________________________________________________________________________________
res4b1_branch2a_relu (Activatio (None, 5, 1, 256)    0           bn4b1_branch2a[0][0]
__________________________________________________________________________________________________
padding4b1_branch2b (ZeroPaddin (None, 7, 3, 256)    0           res4b1_branch2a_relu[0][0]
__________________________________________________________________________________________________
res4b1_branch2b (Conv2D)        (None, 5, 1, 256)    589824      padding4b1_branch2b[0][0]
__________________________________________________________________________________________________
bn4b1_branch2b (BatchNormalizat (None, 5, 1, 256)    1024        res4b1_branch2b[0][0]
__________________________________________________________________________________________________
res4b1 (Add)                    (None, 5, 1, 256)    0           bn4b1_branch2b[0][0]
                                                                 res4a_relu[0][0]
__________________________________________________________________________________________________
res4b1_relu (Activation)        (None, 5, 1, 256)    0           res4b1[0][0]
__________________________________________________________________________________________________
padding5a_branch2a (ZeroPadding (None, 7, 3, 256)    0           res4b1_relu[0][0]
__________________________________________________________________________________________________
res5a_branch2a (Conv2D)         (None, 3, 1, 512)    1179648     padding5a_branch2a[0][0]
__________________________________________________________________________________________________
bn5a_branch2a (BatchNormalizati (None, 3, 1, 512)    2048        res5a_branch2a[0][0]
__________________________________________________________________________________________________
res5a_branch2a_relu (Activation (None, 3, 1, 512)    0           bn5a_branch2a[0][0]
__________________________________________________________________________________________________
padding5a_branch2b (ZeroPadding (None, 5, 3, 512)    0           res5a_branch2a_relu[0][0]
__________________________________________________________________________________________________
res5a_branch2b (Conv2D)         (None, 3, 1, 512)    2359296     padding5a_branch2b[0][0]
__________________________________________________________________________________________________
res5a_branch1 (Conv2D)          (None, 3, 1, 512)    131072      res4b1_relu[0][0]
__________________________________________________________________________________________________
bn5a_branch2b (BatchNormalizati (None, 3, 1, 512)    2048        res5a_branch2b[0][0]
__________________________________________________________________________________________________
bn5a_branch1 (BatchNormalizatio (None, 3, 1, 512)    2048        res5a_branch1[0][0]
__________________________________________________________________________________________________
res5a (Add)                     (None, 3, 1, 512)    0           bn5a_branch2b[0][0]
                                                                 bn5a_branch1[0][0]
__________________________________________________________________________________________________
res5a_relu (Activation)         (None, 3, 1, 512)    0           res5a[0][0]
__________________________________________________________________________________________________
padding5b1_branch2a (ZeroPaddin (None, 5, 3, 512)    0           res5a_relu[0][0]
__________________________________________________________________________________________________
res5b1_branch2a (Conv2D)        (None, 3, 1, 512)    2359296     padding5b1_branch2a[0][0]
__________________________________________________________________________________________________
bn5b1_branch2a (BatchNormalizat (None, 3, 1, 512)    2048        res5b1_branch2a[0][0]
__________________________________________________________________________________________________
res5b1_branch2a_relu (Activatio (None, 3, 1, 512)    0           bn5b1_branch2a[0][0]
__________________________________________________________________________________________________
padding5b1_branch2b (ZeroPaddin (None, 5, 3, 512)    0           res5b1_branch2a_relu[0][0]
__________________________________________________________________________________________________
res5b1_branch2b (Conv2D)        (None, 3, 1, 512)    2359296     padding5b1_branch2b[0][0]
__________________________________________________________________________________________________
bn5b1_branch2b (BatchNormalizat (None, 3, 1, 512)    2048        res5b1_branch2b[0][0]
__________________________________________________________________________________________________
res5b1 (Add)                    (None, 3, 1, 512)    0           bn5b1_branch2b[0][0]
                                                                 res5a_relu[0][0]
__________________________________________________________________________________________________
res5b1_relu (Activation)        (None, 3, 1, 512)    0           res5b1[0][0]
__________________________________________________________________________________________________
pool5 (GlobalAveragePooling2D)  (None, 512)          0           res5b1_relu[0][0]
__________________________________________________________________________________________________
fc1000 (Dense)                  (None, 2)            1026        pool5[0][0]
==================================================================================================
Total params: 11,185,218
Trainable params: 11,175,490
Non-trainable params: 9,728
__________________________________________________________________________________________________
2022-02-05 14:28:02.428664: I tensorflow/compiler/mlir/mlir_graph_optimization_pass.cc:185] None of the MLIR Optimization Passes are enabled (registered 2)
…
